module {
  func.func @moonshine_encoder(%arg0: tensor<1x165x288xbf16>, %arg1: tensor<288xbf16>, %arg2: tensor<288xbf16>, %arg3: tensor<288x288xbf16>, %arg4: tensor<288x288xbf16>, %arg5: tensor<288x288xbf16>, %arg6: tensor<288x288xbf16>, %arg7: tensor<288xbf16>, %arg8: tensor<288xbf16>, %arg9: tensor<1152x288xbf16>, %arg10: tensor<1152xbf16>, %arg11: tensor<288x1152xbf16>, %arg12: tensor<288xbf16>, %arg13: tensor<288xbf16>, %arg14: tensor<288xbf16>) -> (tensor<165x288xf32>) {
    // input n101_input: t0 : tensor<1x165x288xbf16>
    // input n102_input: t14 : tensor<288xbf16>
    // input n103_input: t16 : tensor<288xbf16>
    // input n104_input: t18 : tensor<288x288xbf16>
    // input n105_input: t21 : tensor<288x288xbf16>
    // input n106_input: t24 : tensor<288x288xbf16>
    // input n111_input: t72 : tensor<288x288xbf16>
    // input n112_input: t88 : tensor<288xbf16>
    // input n113_input: t90 : tensor<288xbf16>
    // input n114_input: t92 : tensor<1152x288xbf16>
    // input n115_input: t95 : tensor<1152xbf16>
    // input n116_input: t98 : tensor<288x1152xbf16>
    // input n117_input: t101 : tensor<288xbf16>
    // input n118_input: t116 : tensor<288xbf16>
    // input n119_input: t118 : tensor<288xbf16>
    // weight n107_weight: frozen parameter
    %v0 = stablehlo.constant dense<[[… > : tensor<165x36xbf16>
    // weight n108_weight: frozen parameter
    %v1 = stablehlo.constant dense<[[… > : tensor<165x36xbf16>
    // weight n109_weight: frozen parameter
    %v2 = stablehlo.constant dense<[[… > : tensor<165x36xbf16>
    // weight n110_weight: frozen parameter
    %v3 = stablehlo.constant dense<[[… > : tensor<165x36xbf16>
    %v4 = stablehlo.constant dense<0.16666667> : tensor<4x83x165xbf16>
    %v5 = stablehlo.constant dense<0.16666667> : tensor<4x82x165xbf16>
    %v6 = stablehlo.constant dense<0.16666667> : tensor<4x83x165xbf16>
    %v7 = stablehlo.constant dense<0.16666667> : tensor<4x82x165xbf16>
    // Squeeze dimension 0
    %v8 = stablehlo.reshape %arg0 : (tensor<1x165x288xbf16>) -> tensor<165x288xbf16>
    %v9 = stablehlo.transpose %arg3, dims = [1, 0] : (tensor<288x288xbf16>) -> tensor<288x288xbf16>
    %v10 = stablehlo.transpose %arg4, dims = [1, 0] : (tensor<288x288xbf16>) -> tensor<288x288xbf16>
    %v11 = stablehlo.transpose %arg5, dims = [1, 0] : (tensor<288x288xbf16>) -> tensor<288x288xbf16>
    %v12 = stablehlo.reshape %v2 : (tensor<165x36xbf16>) -> tensor<165x1x36xbf16>
    %v13 = stablehlo.reshape %v3 : (tensor<165x36xbf16>) -> tensor<165x1x36xbf16>
    %v14 = stablehlo.transpose %arg6, dims = [1, 0] : (tensor<288x288xbf16>) -> tensor<288x288xbf16>
    %v15 = stablehlo.transpose %arg9, dims = [1, 0] : (tensor<1152x288xbf16>) -> tensor<288x1152xbf16>
    %v16 = stablehlo.slice %arg10 [0:288:1] : (tensor<1152xbf16>) -> tensor<288xbf16>
    %v17 = stablehlo.slice %arg10 [288:576:1] : (tensor<1152xbf16>) -> tensor<288xbf16>
    %v18 = stablehlo.slice %arg10 [576:864:1] : (tensor<1152xbf16>) -> tensor<288xbf16>
    %v19 = stablehlo.slice %arg10 [864:1152:1] : (tensor<1152xbf16>) -> tensor<288xbf16>
    %v20 = stablehlo.transpose %arg11, dims = [1, 0] : (tensor<288x1152xbf16>) -> tensor<1152x288xbf16>
    %v21 = stablehlo.convert %v8 : (tensor<165x288xbf16>) -> tensor<165x288xf32>
    %v22 = stablehlo.slice %v15 [0:288:1, 0:288:1] : (tensor<288x1152xbf16>) -> tensor<288x288xbf16>
    %v23 = stablehlo.slice %v15 [0:288:1, 288:576:1] : (tensor<288x1152xbf16>) -> tensor<288x288xbf16>
    %v24 = stablehlo.slice %v15 [0:288:1, 576:864:1] : (tensor<288x1152xbf16>) -> tensor<288x288xbf16>
    %v25 = stablehlo.slice %v15 [0:288:1, 864:1152:1] : (tensor<288x1152xbf16>) -> tensor<288x288xbf16>
    %v26 = stablehlo.slice %v20 [0:288:1, 0:288:1] : (tensor<1152x288xbf16>) -> tensor<288x288xbf16>
    %v27 = stablehlo.slice %v20 [288:576:1, 0:288:1] : (tensor<1152x288xbf16>) -> tensor<288x288xbf16>
    %v28 = stablehlo.slice %v20 [576:864:1, 0:288:1] : (tensor<1152x288xbf16>) -> tensor<288x288xbf16>
    %v29 = stablehlo.slice %v20 [864:1152:1, 0:288:1] : (tensor<1152x288xbf16>) -> tensor<288x288xbf16>
    %v30 = stablehlo.constant dense<0.0> : tensor<f32>
    %v31 = stablehlo.reduce(%v21 init: %v30) applies stablehlo.add across dimensions = [1] : (tensor<165x288xf32>, tensor<f32>) -> tensor<165xf32>
    %v32 = stablehlo.constant dense<288.0> : tensor<165xf32>
    %v33 = stablehlo.divide %v31, %v32 : tensor<165xf32>
    // Unsqueeze at dimension 1
    %v34 = stablehlo.reshape %v33 : (tensor<165xf32>) -> tensor<165x1xf32>
    %v35 = stablehlo.broadcast_in_dim %v34, dims = [0, 1] : (tensor<165x1xf32>) -> tensor<165x288xf32>
    %v36 = stablehlo.subtract %v21, %v35 : tensor<165x288xf32>
    %v37 = stablehlo.broadcast_in_dim %v34, dims = [0, 1] : (tensor<165x1xf32>) -> tensor<165x288xf32>
    %v38 = stablehlo.subtract %v21, %v37 : tensor<165x288xf32>
    %v39 = stablehlo.multiply %v36, %v36 : tensor<165x288xf32>
    %v40 = stablehlo.constant dense<0.0> : tensor<f32>
    %v41 = stablehlo.reduce(%v39 init: %v40) applies stablehlo.add across dimensions = [1] : (tensor<165x288xf32>, tensor<f32>) -> tensor<165xf32>
    %v42 = stablehlo.constant dense<288.0> : tensor<165xf32>
    %v43 = stablehlo.divide %v41, %v42 : tensor<165xf32>
    // Unsqueeze at dimension 1
    %v44 = stablehlo.reshape %v43 : (tensor<165xf32>) -> tensor<165x1xf32>
    %v45 = stablehlo.constant dense<9.999999747378752E-6> : tensor<165x1xf32>
    %v46 = stablehlo.add %v44, %v45 : tensor<165x1xf32>
    %v47 = stablehlo.sqrt %v46 : tensor<165x1xf32>
    %v48 = stablehlo.broadcast_in_dim %v47, dims = [0, 1] : (tensor<165x1xf32>) -> tensor<165x288xf32>
    %v49 = stablehlo.divide %v38, %v48 : tensor<165x288xf32>
    %v50 = stablehlo.convert %v49 : (tensor<165x288xf32>) -> tensor<165x288xf32>
    %v51 = stablehlo.convert %arg1 : (tensor<288xbf16>) -> tensor<288xf32>
    %v52 = stablehlo.broadcast_in_dim %v51, dims = [1] : (tensor<288xf32>) -> tensor<165x288xf32>
    %v53 = stablehlo.multiply %v50, %v52 : tensor<165x288xf32>
    %v54 = stablehlo.convert %arg2 : (tensor<288xbf16>) -> tensor<288xf32>
    %v55 = stablehlo.broadcast_in_dim %v54, dims = [1] : (tensor<288xf32>) -> tensor<165x288xf32>
    %v56 = stablehlo.add %v53, %v55 : tensor<165x288xf32>
    %v57 = stablehlo.convert %v56 : (tensor<165x288xf32>) -> tensor<165x288xbf16>
    %v58 = stablehlo.convert %v56 : (tensor<165x288xf32>) -> tensor<165x288xbf16>
    %v59 = stablehlo.convert %v56 : (tensor<165x288xf32>) -> tensor<165x288xbf16>
    %v60 = stablehlo.dot_general %v57, %v9, contracting_dims = [1] x [0] : (tensor<165x288xbf16>, tensor<288x288xbf16>) -> tensor<165x288xf32>
    %v61 = stablehlo.dot_general %v58, %v10, contracting_dims = [1] x [0] : (tensor<165x288xbf16>, tensor<288x288xbf16>) -> tensor<165x288xf32>
    %v62 = stablehlo.dot_general %v59, %v11, contracting_dims = [1] x [0] : (tensor<165x288xbf16>, tensor<288x288xbf16>) -> tensor<165x288xf32>
    %v63 = stablehlo.reshape %v60 : (tensor<165x288xf32>) -> tensor<165x8x36xf32>
    %v64 = stablehlo.reshape %v61 : (tensor<165x288xf32>) -> tensor<165x8x36xf32>
    %v65 = stablehlo.reshape %v62 : (tensor<165x288xf32>) -> tensor<165x8x36xf32>
    %v66 = stablehlo.convert %v63 : (tensor<165x8x36xf32>) -> tensor<165x8x36xbf16>
    %v67 = stablehlo.convert %v64 : (tensor<165x8x36xf32>) -> tensor<165x8x36xf32>
    %v68 = stablehlo.convert %v65 : (tensor<165x8x36xf32>) -> tensor<165x8x36xbf16>
    %v69 = stablehlo.transpose %v66, dims = [1, 0, 2] : (tensor<165x8x36xbf16>) -> tensor<8x165x36xbf16>
    %v70 = stablehlo.reshape %v67 : (tensor<165x8x36xf32>) -> tensor<165x8x18x2xf32>
    %v71 = stablehlo.convert %v12 : (tensor<165x1x36xbf16>) -> tensor<165x1x36xf32>
    %v72 = stablehlo.broadcast_in_dim %v71, dims = [0, 1, 2] : (tensor<165x1x36xf32>) -> tensor<165x8x36xf32>
    %v73 = stablehlo.multiply %v67, %v72 : tensor<165x8x36xf32>
    %v74 = stablehlo.transpose %v68, dims = [1, 0, 2] : (tensor<165x8x36xbf16>) -> tensor<8x165x36xbf16>
    %v75 = stablehlo.convert %v69 : (tensor<8x165x36xbf16>) -> tensor<8x165x36xbf16>
    %v76 = stablehlo.slice %v70 [0:165:1, 0:8:1, 0:18:1, 1:2:1] : (tensor<165x8x18x2xf32>) -> tensor<165x8x18x1xf32>
    %v77 = stablehlo.slice %v70 [0:165:1, 0:8:1, 0:18:1, 0:1:1] : (tensor<165x8x18x2xf32>) -> tensor<165x8x18x1xf32>
    %v78 = stablehlo.slice %v74 [0:4:1, 0:165:1, 0:36:1] : (tensor<8x165x36xbf16>) -> tensor<4x165x36xbf16>
    %v79 = stablehlo.slice %v74 [4:8:1, 0:165:1, 0:36:1] : (tensor<8x165x36xbf16>) -> tensor<4x165x36xbf16>
    %v80 = stablehlo.reshape %v75 : (tensor<8x165x36xbf16>) -> tensor<8x165x18x2xbf16>
    %v81 = stablehlo.broadcast_in_dim %v0, dims = [1, 2] : (tensor<165x36xbf16>) -> tensor<8x165x36xbf16>
    %v82 = stablehlo.multiply %v75, %v81 : tensor<8x165x36xbf16>
    %v83 = stablehlo.reshape %v76 : (tensor<165x8x18x1xf32>) -> tensor<165x8x18xf32>
    %v84 = stablehlo.reshape %v77 : (tensor<165x8x18x1xf32>) -> tensor<165x8x18xf32>
    %v85 = stablehlo.slice %v80 [0:8:1, 0:165:1, 0:18:1, 0:1:1] : (tensor<8x165x18x2xbf16>) -> tensor<8x165x18x1xbf16>
    %v86 = stablehlo.slice %v80 [0:8:1, 0:165:1, 0:18:1, 1:2:1] : (tensor<8x165x18x2xbf16>) -> tensor<8x165x18x1xbf16>
    // Unsqueeze at dimension 3
    %v87 = stablehlo.reshape %v83 : (tensor<165x8x18xf32>) -> tensor<165x8x18x1xf32>
    // Unsqueeze at dimension 3
    %v88 = stablehlo.reshape %v84 : (tensor<165x8x18xf32>) -> tensor<165x8x18x1xf32>
    %v89 = stablehlo.reshape %v85 : (tensor<8x165x18x1xbf16>) -> tensor<8x165x18xbf16>
    %v90 = stablehlo.reshape %v86 : (tensor<8x165x18x1xbf16>) -> tensor<8x165x18xbf16>
    %v91 = stablehlo.concatenate %v87, %v88, dim = 3 : (tensor<165x8x18x1xf32>, tensor<165x8x18x1xf32>) -> tensor<165x8x18x2xf32>
    // Unsqueeze at dimension 3
    %v92 = stablehlo.reshape %v89 : (tensor<8x165x18xbf16>) -> tensor<8x165x18x1xbf16>
    // Unsqueeze at dimension 3
    %v93 = stablehlo.reshape %v90 : (tensor<8x165x18xbf16>) -> tensor<8x165x18x1xbf16>
    %v94 = stablehlo.reshape %v91 : (tensor<165x8x18x2xf32>) -> tensor<165x8x36xf32>
    %v95 = stablehlo.concatenate %v93, %v92, dim = 3 : (tensor<8x165x18x1xbf16>, tensor<8x165x18x1xbf16>) -> tensor<8x165x18x2xbf16>
    %v96 = stablehlo.convert %v13 : (tensor<165x1x36xbf16>) -> tensor<165x1x36xf32>
    %v97 = stablehlo.broadcast_in_dim %v96, dims = [0, 1, 2] : (tensor<165x1x36xf32>) -> tensor<165x8x36xf32>
    %v98 = stablehlo.multiply %v94, %v97 : tensor<165x8x36xf32>
    %v99 = stablehlo.reshape %v95 : (tensor<8x165x18x2xbf16>) -> tensor<8x165x36xbf16>
    %v100 = stablehlo.add %v73, %v98 : tensor<165x8x36xf32>
    %v101 = stablehlo.broadcast_in_dim %v1, dims = [1, 2] : (tensor<165x36xbf16>) -> tensor<8x165x36xbf16>
    %v102 = stablehlo.multiply %v99, %v101 : tensor<8x165x36xbf16>
    %v103 = stablehlo.convert %v100 : (tensor<165x8x36xf32>) -> tensor<165x8x36xf32>
    %v104 = stablehlo.add %v82, %v102 : tensor<8x165x36xbf16>
    %v105 = stablehlo.convert %v103 : (tensor<165x8x36xf32>) -> tensor<165x8x36xbf16>
    %v106 = stablehlo.convert %v104 : (tensor<8x165x36xbf16>) -> tensor<8x165x36xbf16>
    %v107 = stablehlo.transpose %v105, dims = [1, 2, 0] : (tensor<165x8x36xbf16>) -> tensor<8x36x165xbf16>
    %v108 = stablehlo.slice %v106 [0:4:1, 0:165:1, 0:36:1] : (tensor<8x165x36xbf16>) -> tensor<4x165x36xbf16>
    %v109 = stablehlo.slice %v106 [4:8:1, 0:165:1, 0:36:1] : (tensor<8x165x36xbf16>) -> tensor<4x165x36xbf16>
    %v110 = stablehlo.slice %v107 [0:4:1, 0:36:1, 0:165:1] : (tensor<8x36x165xbf16>) -> tensor<4x36x165xbf16>
    %v111 = stablehlo.slice %v107 [4:8:1, 0:36:1, 0:165:1] : (tensor<8x36x165xbf16>) -> tensor<4x36x165xbf16>
    %v112 = stablehlo.slice %v108 [0:4:1, 0:83:1, 0:36:1] : (tensor<4x165x36xbf16>) -> tensor<4x83x36xbf16>
    %v113 = stablehlo.slice %v108 [0:4:1, 83:165:1, 0:36:1] : (tensor<4x165x36xbf16>) -> tensor<4x82x36xbf16>
    %v114 = stablehlo.slice %v109 [0:4:1, 0:83:1, 0:36:1] : (tensor<4x165x36xbf16>) -> tensor<4x83x36xbf16>
    %v115 = stablehlo.slice %v109 [0:4:1, 83:165:1, 0:36:1] : (tensor<4x165x36xbf16>) -> tensor<4x82x36xbf16>
    %v116 = stablehlo.dot_general %v112, %v110, batching_dims = [0] x [0], contracting_dims = [2] x [1] : (tensor<4x83x36xbf16>, tensor<4x36x165xbf16>) -> tensor<4x83x165xbf16>
    %v117 = stablehlo.dot_general %v113, %v110, batching_dims = [0] x [0], contracting_dims = [2] x [1] : (tensor<4x82x36xbf16>, tensor<4x36x165xbf16>) -> tensor<4x82x165xbf16>
    %v118 = stablehlo.dot_general %v114, %v111, batching_dims = [0] x [0], contracting_dims = [2] x [1] : (tensor<4x83x36xbf16>, tensor<4x36x165xbf16>) -> tensor<4x83x165xbf16>
    %v119 = stablehlo.dot_general %v115, %v111, batching_dims = [0] x [0], contracting_dims = [2] x [1] : (tensor<4x82x36xbf16>, tensor<4x36x165xbf16>) -> tensor<4x82x165xbf16>
    %v120 = stablehlo.multiply %v116, %v4 : tensor<4x83x165xbf16>
    %v121 = stablehlo.multiply %v117, %v5 : tensor<4x82x165xbf16>
    %v122 = stablehlo.multiply %v118, %v6 : tensor<4x83x165xbf16>
    %v123 = stablehlo.multiply %v119, %v7 : tensor<4x82x165xbf16>
    %v124 = stablehlo.constant dense<0xFF80> : tensor<bf16>
    %v125 = stablehlo.reduce(%v120 init: %v124) applies stablehlo.maximum across dimensions = [2] : (tensor<4x83x165xbf16>, tensor<bf16>) -> tensor<4x83xbf16>
    %v126 = stablehlo.broadcast_in_dim %v125, dims = [0, 1] : (tensor<4x83xbf16>) -> tensor<4x83x165xbf16>
    %v127 = stablehlo.subtract %v120, %v126 : tensor<4x83x165xbf16>
    %v128 = stablehlo.exponential %v127 : tensor<4x83x165xbf16>
    %v129 = stablehlo.constant dense<0.0> : tensor<bf16>
    %v130 = stablehlo.reduce(%v128 init: %v129) applies stablehlo.add across dimensions = [2] : (tensor<4x83x165xbf16>, tensor<bf16>) -> tensor<4x83xbf16>
    %v131 = stablehlo.broadcast_in_dim %v130, dims = [0, 1] : (tensor<4x83xbf16>) -> tensor<4x83x165xbf16>
    %v132 = stablehlo.divide %v128, %v131 : tensor<4x83x165xbf16>
    %v133 = stablehlo.constant dense<0xFF80> : tensor<bf16>
    %v134 = stablehlo.reduce(%v121 init: %v133) applies stablehlo.maximum across dimensions = [2] : (tensor<4x82x165xbf16>, tensor<bf16>) -> tensor<4x82xbf16>
    %v135 = stablehlo.broadcast_in_dim %v134, dims = [0, 1] : (tensor<4x82xbf16>) -> tensor<4x82x165xbf16>
    %v136 = stablehlo.subtract %v121, %v135 : tensor<4x82x165xbf16>
    %v137 = stablehlo.exponential %v136 : tensor<4x82x165xbf16>
    %v138 = stablehlo.constant dense<0.0> : tensor<bf16>
    %v139 = stablehlo.reduce(%v137 init: %v138) applies stablehlo.add across dimensions = [2] : (tensor<4x82x165xbf16>, tensor<bf16>) -> tensor<4x82xbf16>
    %v140 = stablehlo.broadcast_in_dim %v139, dims = [0, 1] : (tensor<4x82xbf16>) -> tensor<4x82x165xbf16>
    %v141 = stablehlo.divide %v137, %v140 : tensor<4x82x165xbf16>
    %v142 = stablehlo.constant dense<0xFF80> : tensor<bf16>
    %v143 = stablehlo.reduce(%v122 init: %v142) applies stablehlo.maximum across dimensions = [2] : (tensor<4x83x165xbf16>, tensor<bf16>) -> tensor<4x83xbf16>
    %v144 = stablehlo.broadcast_in_dim %v143, dims = [0, 1] : (tensor<4x83xbf16>) -> tensor<4x83x165xbf16>
    %v145 = stablehlo.subtract %v122, %v144 : tensor<4x83x165xbf16>
    %v146 = stablehlo.exponential %v145 : tensor<4x83x165xbf16>
    %v147 = stablehlo.constant dense<0.0> : tensor<bf16>
    %v148 = stablehlo.reduce(%v146 init: %v147) applies stablehlo.add across dimensions = [2] : (tensor<4x83x165xbf16>, tensor<bf16>) -> tensor<4x83xbf16>
    %v149 = stablehlo.broadcast_in_dim %v148, dims = [0, 1] : (tensor<4x83xbf16>) -> tensor<4x83x165xbf16>
    %v150 = stablehlo.divide %v146, %v149 : tensor<4x83x165xbf16>
    %v151 = stablehlo.constant dense<0xFF80> : tensor<bf16>
    %v152 = stablehlo.reduce(%v123 init: %v151) applies stablehlo.maximum across dimensions = [2] : (tensor<4x82x165xbf16>, tensor<bf16>) -> tensor<4x82xbf16>
    %v153 = stablehlo.broadcast_in_dim %v152, dims = [0, 1] : (tensor<4x82xbf16>) -> tensor<4x82x165xbf16>
    %v154 = stablehlo.subtract %v123, %v153 : tensor<4x82x165xbf16>
    %v155 = stablehlo.exponential %v154 : tensor<4x82x165xbf16>
    %v156 = stablehlo.constant dense<0.0> : tensor<bf16>
    %v157 = stablehlo.reduce(%v155 init: %v156) applies stablehlo.add across dimensions = [2] : (tensor<4x82x165xbf16>, tensor<bf16>) -> tensor<4x82xbf16>
    %v158 = stablehlo.broadcast_in_dim %v157, dims = [0, 1] : (tensor<4x82xbf16>) -> tensor<4x82x165xbf16>
    %v159 = stablehlo.divide %v155, %v158 : tensor<4x82x165xbf16>
    %v160 = stablehlo.dot_general %v132, %v78, batching_dims = [0] x [0], contracting_dims = [2] x [1] : (tensor<4x83x165xbf16>, tensor<4x165x36xbf16>) -> tensor<4x83x36xbf16>
    %v161 = stablehlo.dot_general %v141, %v78, batching_dims = [0] x [0], contracting_dims = [2] x [1] : (tensor<4x82x165xbf16>, tensor<4x165x36xbf16>) -> tensor<4x82x36xbf16>
    %v162 = stablehlo.dot_general %v150, %v79, batching_dims = [0] x [0], contracting_dims = [2] x [1] : (tensor<4x83x165xbf16>, tensor<4x165x36xbf16>) -> tensor<4x83x36xbf16>
    %v163 = stablehlo.dot_general %v159, %v79, batching_dims = [0] x [0], contracting_dims = [2] x [1] : (tensor<4x82x165xbf16>, tensor<4x165x36xbf16>) -> tensor<4x82x36xbf16>
    %v164 = stablehlo.concatenate %v160, %v161, dim = 1 : (tensor<4x83x36xbf16>, tensor<4x82x36xbf16>) -> tensor<4x165x36xbf16>
    %v165 = stablehlo.concatenate %v162, %v163, dim = 1 : (tensor<4x83x36xbf16>, tensor<4x82x36xbf16>) -> tensor<4x165x36xbf16>
    %v166 = stablehlo.concatenate %v164, %v165, dim = 0 : (tensor<4x165x36xbf16>, tensor<4x165x36xbf16>) -> tensor<8x165x36xbf16>
    %v167 = stablehlo.convert %v166 : (tensor<8x165x36xbf16>) -> tensor<8x165x36xf32>
    %v168 = stablehlo.reshape %v167 : (tensor<8x165x36xf32>) -> tensor<1x8x165x36xf32>
    %v169 = stablehlo.convert %v168 : (tensor<1x8x165x36xf32>) -> tensor<1x8x165x36xbf16>
    // Squeeze dimension 0
    %v170 = stablehlo.reshape %v169 : (tensor<1x8x165x36xbf16>) -> tensor<8x165x36xbf16>
    %v171 = stablehlo.convert %v170 : (tensor<8x165x36xbf16>) -> tensor<8x165x36xf32>
    %v172 = stablehlo.transpose %v171, dims = [1, 0, 2] : (tensor<8x165x36xf32>) -> tensor<165x8x36xf32>
    %v173 = stablehlo.reshape %v172 : (tensor<165x8x36xf32>) -> tensor<165x288xf32>
    %v174 = stablehlo.convert %v173 : (tensor<165x288xf32>) -> tensor<165x288xbf16>
    %v175 = stablehlo.dot_general %v174, %v14, contracting_dims = [1] x [0] : (tensor<165x288xbf16>, tensor<288x288xbf16>) -> tensor<165x288xf32>
    %v176 = stablehlo.convert %v8 : (tensor<165x288xbf16>) -> tensor<165x288xf32>
    %v177 = stablehlo.add %v175, %v176 : tensor<165x288xf32>
    %v178 = stablehlo.convert %v177 : (tensor<165x288xf32>) -> tensor<165x288xf32>
    %v179 = stablehlo.constant dense<0.0> : tensor<f32>
    %v180 = stablehlo.reduce(%v178 init: %v179) applies stablehlo.add across dimensions = [1] : (tensor<165x288xf32>, tensor<f32>) -> tensor<165xf32>
    %v181 = stablehlo.constant dense<288.0> : tensor<165xf32>
    %v182 = stablehlo.divide %v180, %v181 : tensor<165xf32>
    // Unsqueeze at dimension 1
    %v183 = stablehlo.reshape %v182 : (tensor<165xf32>) -> tensor<165x1xf32>
    %v184 = stablehlo.broadcast_in_dim %v183, dims = [0, 1] : (tensor<165x1xf32>) -> tensor<165x288xf32>
    %v185 = stablehlo.subtract %v178, %v184 : tensor<165x288xf32>
    %v186 = stablehlo.broadcast_in_dim %v183, dims = [0, 1] : (tensor<165x1xf32>) -> tensor<165x288xf32>
    %v187 = stablehlo.subtract %v178, %v186 : tensor<165x288xf32>
    %v188 = stablehlo.multiply %v185, %v185 : tensor<165x288xf32>
    %v189 = stablehlo.constant dense<0.0> : tensor<f32>
    %v190 = stablehlo.reduce(%v188 init: %v189) applies stablehlo.add across dimensions = [1] : (tensor<165x288xf32>, tensor<f32>) -> tensor<165xf32>
    %v191 = stablehlo.constant dense<288.0> : tensor<165xf32>
    %v192 = stablehlo.divide %v190, %v191 : tensor<165xf32>
    // Unsqueeze at dimension 1
    %v193 = stablehlo.reshape %v192 : (tensor<165xf32>) -> tensor<165x1xf32>
    %v194 = stablehlo.constant dense<9.999999747378752E-6> : tensor<165x1xf32>
    %v195 = stablehlo.add %v193, %v194 : tensor<165x1xf32>
    %v196 = stablehlo.sqrt %v195 : tensor<165x1xf32>
    %v197 = stablehlo.broadcast_in_dim %v196, dims = [0, 1] : (tensor<165x1xf32>) -> tensor<165x288xf32>
    %v198 = stablehlo.divide %v187, %v197 : tensor<165x288xf32>
    %v199 = stablehlo.convert %v198 : (tensor<165x288xf32>) -> tensor<165x288xf32>
    %v200 = stablehlo.convert %arg7 : (tensor<288xbf16>) -> tensor<288xf32>
    %v201 = stablehlo.broadcast_in_dim %v200, dims = [1] : (tensor<288xf32>) -> tensor<165x288xf32>
    %v202 = stablehlo.multiply %v199, %v201 : tensor<165x288xf32>
    %v203 = stablehlo.convert %arg8 : (tensor<288xbf16>) -> tensor<288xf32>
    %v204 = stablehlo.broadcast_in_dim %v203, dims = [1] : (tensor<288xf32>) -> tensor<165x288xf32>
    %v205 = stablehlo.add %v202, %v204 : tensor<165x288xf32>
    %v206 = stablehlo.convert %v205 : (tensor<165x288xf32>) -> tensor<165x288xbf16>
    %v207 = stablehlo.convert %v205 : (tensor<165x288xf32>) -> tensor<165x288xbf16>
    %v208 = stablehlo.convert %v205 : (tensor<165x288xf32>) -> tensor<165x288xbf16>
    %v209 = stablehlo.convert %v205 : (tensor<165x288xf32>) -> tensor<165x288xbf16>
    %v210 = stablehlo.dot_general %v206, %v22, contracting_dims = [1] x [0] : (tensor<165x288xbf16>, tensor<288x288xbf16>) -> tensor<165x288xf32>
    %v211 = stablehlo.dot_general %v207, %v23, contracting_dims = [1] x [0] : (tensor<165x288xbf16>, tensor<288x288xbf16>) -> tensor<165x288xf32>
    %v212 = stablehlo.dot_general %v208, %v24, contracting_dims = [1] x [0] : (tensor<165x288xbf16>, tensor<288x288xbf16>) -> tensor<165x288xf32>
    %v213 = stablehlo.dot_general %v209, %v25, contracting_dims = [1] x [0] : (tensor<165x288xbf16>, tensor<288x288xbf16>) -> tensor<165x288xf32>
    %v214 = stablehlo.convert %v16 : (tensor<288xbf16>) -> tensor<288xf32>
    %v215 = stablehlo.broadcast_in_dim %v214, dims = [1] : (tensor<288xf32>) -> tensor<165x288xf32>
    %v216 = stablehlo.add %v210, %v215 : tensor<165x288xf32>
    %v217 = stablehlo.convert %v17 : (tensor<288xbf16>) -> tensor<288xf32>
    %v218 = stablehlo.broadcast_in_dim %v217, dims = [1] : (tensor<288xf32>) -> tensor<165x288xf32>
    %v219 = stablehlo.add %v211, %v218 : tensor<165x288xf32>
    %v220 = stablehlo.convert %v18 : (tensor<288xbf16>) -> tensor<288xf32>
    %v221 = stablehlo.broadcast_in_dim %v220, dims = [1] : (tensor<288xf32>) -> tensor<165x288xf32>
    %v222 = stablehlo.add %v212, %v221 : tensor<165x288xf32>
    %v223 = stablehlo.convert %v19 : (tensor<288xbf16>) -> tensor<288xf32>
    %v224 = stablehlo.broadcast_in_dim %v223, dims = [1] : (tensor<288xf32>) -> tensor<165x288xf32>
    %v225 = stablehlo.add %v213, %v224 : tensor<165x288xf32>
    %v226 = stablehlo.constant dense<0.5> : tensor<165x288xf32>
    %v227 = stablehlo.constant dense<1.0> : tensor<165x288xf32>
    %v228 = stablehlo.constant dense<0.7978845608> : tensor<165x288xf32>
    %v229 = stablehlo.constant dense<0.044715> : tensor<165x288xf32>
    %v230 = stablehlo.multiply %v216, %v216 : tensor<165x288xf32>
    %v231 = stablehlo.multiply %v230, %v216 : tensor<165x288xf32>
    %v232 = stablehlo.multiply %v229, %v231 : tensor<165x288xf32>
    %v233 = stablehlo.add %v216, %v232 : tensor<165x288xf32>
    %v234 = stablehlo.multiply %v228, %v233 : tensor<165x288xf32>
    %v235 = stablehlo.tanh %v234 : tensor<165x288xf32>
    %v236 = stablehlo.add %v227, %v235 : tensor<165x288xf32>
    %v237 = stablehlo.multiply %v226, %v216 : tensor<165x288xf32>
    %v238 = stablehlo.multiply %v237, %v236 : tensor<165x288xf32>
    %v239 = stablehlo.constant dense<0.5> : tensor<165x288xf32>
    %v240 = stablehlo.constant dense<1.0> : tensor<165x288xf32>
    %v241 = stablehlo.constant dense<0.7978845608> : tensor<165x288xf32>
    %v242 = stablehlo.constant dense<0.044715> : tensor<165x288xf32>
    %v243 = stablehlo.multiply %v219, %v219 : tensor<165x288xf32>
    %v244 = stablehlo.multiply %v243, %v219 : tensor<165x288xf32>
    %v245 = stablehlo.multiply %v242, %v244 : tensor<165x288xf32>
    %v246 = stablehlo.add %v219, %v245 : tensor<165x288xf32>
    %v247 = stablehlo.multiply %v241, %v246 : tensor<165x288xf32>
    %v248 = stablehlo.tanh %v247 : tensor<165x288xf32>
    %v249 = stablehlo.add %v240, %v248 : tensor<165x288xf32>
    %v250 = stablehlo.multiply %v239, %v219 : tensor<165x288xf32>
    %v251 = stablehlo.multiply %v250, %v249 : tensor<165x288xf32>
    %v252 = stablehlo.constant dense<0.5> : tensor<165x288xf32>
    %v253 = stablehlo.constant dense<1.0> : tensor<165x288xf32>
    %v254 = stablehlo.constant dense<0.7978845608> : tensor<165x288xf32>
    %v255 = stablehlo.constant dense<0.044715> : tensor<165x288xf32>
    %v256 = stablehlo.multiply %v222, %v222 : tensor<165x288xf32>
    %v257 = stablehlo.multiply %v256, %v222 : tensor<165x288xf32>
    %v258 = stablehlo.multiply %v255, %v257 : tensor<165x288xf32>
    %v259 = stablehlo.add %v222, %v258 : tensor<165x288xf32>
    %v260 = stablehlo.multiply %v254, %v259 : tensor<165x288xf32>
    %v261 = stablehlo.tanh %v260 : tensor<165x288xf32>
    %v262 = stablehlo.add %v253, %v261 : tensor<165x288xf32>
    %v263 = stablehlo.multiply %v252, %v222 : tensor<165x288xf32>
    %v264 = stablehlo.multiply %v263, %v262 : tensor<165x288xf32>
    %v265 = stablehlo.constant dense<0.5> : tensor<165x288xf32>
    %v266 = stablehlo.constant dense<1.0> : tensor<165x288xf32>
    %v267 = stablehlo.constant dense<0.7978845608> : tensor<165x288xf32>
    %v268 = stablehlo.constant dense<0.044715> : tensor<165x288xf32>
    %v269 = stablehlo.multiply %v225, %v225 : tensor<165x288xf32>
    %v270 = stablehlo.multiply %v269, %v225 : tensor<165x288xf32>
    %v271 = stablehlo.multiply %v268, %v270 : tensor<165x288xf32>
    %v272 = stablehlo.add %v225, %v271 : tensor<165x288xf32>
    %v273 = stablehlo.multiply %v267, %v272 : tensor<165x288xf32>
    %v274 = stablehlo.tanh %v273 : tensor<165x288xf32>
    %v275 = stablehlo.add %v266, %v274 : tensor<165x288xf32>
    %v276 = stablehlo.multiply %v265, %v225 : tensor<165x288xf32>
    %v277 = stablehlo.multiply %v276, %v275 : tensor<165x288xf32>
    %v278 = stablehlo.convert %v238 : (tensor<165x288xf32>) -> tensor<165x288xbf16>
    %v279 = stablehlo.convert %v251 : (tensor<165x288xf32>) -> tensor<165x288xbf16>
    %v280 = stablehlo.convert %v264 : (tensor<165x288xf32>) -> tensor<165x288xbf16>
    %v281 = stablehlo.convert %v277 : (tensor<165x288xf32>) -> tensor<165x288xbf16>
    %v282 = stablehlo.dot_general %v278, %v26, contracting_dims = [1] x [0] : (tensor<165x288xbf16>, tensor<288x288xbf16>) -> tensor<165x288xf32>
    %v283 = stablehlo.dot_general %v279, %v27, contracting_dims = [1] x [0] : (tensor<165x288xbf16>, tensor<288x288xbf16>) -> tensor<165x288xf32>
    %v284 = stablehlo.dot_general %v280, %v28, contracting_dims = [1] x [0] : (tensor<165x288xbf16>, tensor<288x288xbf16>) -> tensor<165x288xf32>
    %v285 = stablehlo.dot_general %v281, %v29, contracting_dims = [1] x [0] : (tensor<165x288xbf16>, tensor<288x288xbf16>) -> tensor<165x288xf32>
    %v286 = stablehlo.add %v282, %v283 : tensor<165x288xf32>
    %v287 = stablehlo.add %v284, %v285 : tensor<165x288xf32>
    %v288 = stablehlo.add %v286, %v287 : tensor<165x288xf32>
    %v289 = stablehlo.convert %arg12 : (tensor<288xbf16>) -> tensor<288xf32>
    %v290 = stablehlo.broadcast_in_dim %v289, dims = [1] : (tensor<288xf32>) -> tensor<165x288xf32>
    %v291 = stablehlo.add %v288, %v290 : tensor<165x288xf32>
    %v292 = stablehlo.add %v291, %v177 : tensor<165x288xf32>
    %v293 = stablehlo.convert %v292 : (tensor<165x288xf32>) -> tensor<165x288xf32>
    %v294 = stablehlo.constant dense<0.0> : tensor<f32>
    %v295 = stablehlo.reduce(%v293 init: %v294) applies stablehlo.add across dimensions = [1] : (tensor<165x288xf32>, tensor<f32>) -> tensor<165xf32>
    %v296 = stablehlo.constant dense<288.0> : tensor<165xf32>
    %v297 = stablehlo.divide %v295, %v296 : tensor<165xf32>
    // Unsqueeze at dimension 1
    %v298 = stablehlo.reshape %v297 : (tensor<165xf32>) -> tensor<165x1xf32>
    %v299 = stablehlo.broadcast_in_dim %v298, dims = [0, 1] : (tensor<165x1xf32>) -> tensor<165x288xf32>
    %v300 = stablehlo.subtract %v293, %v299 : tensor<165x288xf32>
    %v301 = stablehlo.broadcast_in_dim %v298, dims = [0, 1] : (tensor<165x1xf32>) -> tensor<165x288xf32>
    %v302 = stablehlo.subtract %v293, %v301 : tensor<165x288xf32>
    %v303 = stablehlo.multiply %v300, %v300 : tensor<165x288xf32>
    %v304 = stablehlo.constant dense<0.0> : tensor<f32>
    %v305 = stablehlo.reduce(%v303 init: %v304) applies stablehlo.add across dimensions = [1] : (tensor<165x288xf32>, tensor<f32>) -> tensor<165xf32>
    %v306 = stablehlo.constant dense<288.0> : tensor<165xf32>
    %v307 = stablehlo.divide %v305, %v306 : tensor<165xf32>
    // Unsqueeze at dimension 1
    %v308 = stablehlo.reshape %v307 : (tensor<165xf32>) -> tensor<165x1xf32>
    %v309 = stablehlo.constant dense<9.999999747378752E-6> : tensor<165x1xf32>
    %v310 = stablehlo.add %v308, %v309 : tensor<165x1xf32>
    %v311 = stablehlo.sqrt %v310 : tensor<165x1xf32>
    %v312 = stablehlo.broadcast_in_dim %v311, dims = [0, 1] : (tensor<165x1xf32>) -> tensor<165x288xf32>
    %v313 = stablehlo.divide %v302, %v312 : tensor<165x288xf32>
    %v314 = stablehlo.convert %v313 : (tensor<165x288xf32>) -> tensor<165x288xf32>
    %v315 = stablehlo.convert %arg13 : (tensor<288xbf16>) -> tensor<288xf32>
    %v316 = stablehlo.broadcast_in_dim %v315, dims = [1] : (tensor<288xf32>) -> tensor<165x288xf32>
    %v317 = stablehlo.multiply %v314, %v316 : tensor<165x288xf32>
    %v318 = stablehlo.convert %arg14 : (tensor<288xbf16>) -> tensor<288xf32>
    %v319 = stablehlo.broadcast_in_dim %v318, dims = [1] : (tensor<288xf32>) -> tensor<165x288xf32>
    %v320 = stablehlo.add %v317, %v319 : tensor<165x288xf32>
    return %v320 : tensor<165x288xf32>
  }
}
